src/ml/model.tflite (tflite, 677636 bytes, 10 tensors)

sequential/conv2d/Relu;sequential/conv2d/BiasAdd;sequential/conv2d_2/Conv2D;sequential/conv2d/Conv2D;sequential/conv2d/BiasAdd/ReadVariableOp f4 [32, 3, 3, 3]
000000 0e 35 f9 b7 88 d6 90 39 43 97 99 39 3d 4d 2d 38
       -2.9707819e-05 0.0002762566 0.00029295133 4.1318348e-05
000010 57 46 06 ba 0d ad f1 38 06 a4 1e 3a c4 f0 ab 39
       -0.0005122176 0.00011524009 0.0006051663 0.00032795046
000020 a8 19 b6 b9 a4 4b 44 ba 15 3c 9d b9 28 42 e0 b9
       -0.0003473286 -0.0007488078 -0.00029990138 -0.000427739
000030 88 da d9 39 6f cc 03 3a c4 cb 88 3a b5 73 46 b9
       0.00041552284 0.00050277164 0.0010436703 -0.00018925856
000040 f8 99 47 ba 39 f2 46 ba fd f5 9b b9 ed da 06 ba
       -0.00076141907 -0.00075891946 -0.0002974718 -0.0005144317
000050 86 44 f0 b9 16 0b 12 3a a5 6a 72 3a f8 f1 0d 3a
       -0.0004582742 0.000557111 0.00092474587 0.00054147793
000060 5a d7 0b ba 2c a1 96 b9 01 49 61 38 eb fe 95 39
       -0.0005334519 -0.00028730312 5.371217e-05 0.00028609423
000070 12 ff c6 b9 6b 70 85 39 1a 40 15 ba d8 5c f6 39
       -0.00037955545 0.00025451495 -0.0005693451 0.0004698995
000080 2c e5 d2 39 6c 61 82 b9 bd d7 d1 b9 d4 cf 92 39
       0.00040225068 -0.00024868117 -0.00040024324 0.00028002134
000090 e1 d0 dd 39 2c f5 1b 3a 7e 4c 2f 39 81 46 15 3a
       0.00042308032 0.0005949314 0.00016717796 0.0005694405
0000a0 53 66 dd 39 d9 21 d7 39 fb 2a fa 38 75 6f 50 b9
       0.00042228642 0.00041033214 0.00011928935 -0.00019877947
0000b0 b4 07 ea 39 67 96 df 39 a2 f0 61 39 55 b9 ce 39
       0.00044637697 0.00042645933 0.00021547315 0.00039429465
0000c0 31 90 32 b8 5b f5 f3 39 71 f4 d8 39 1b fb b4 38
       -4.2572796e-05 0.00046531376 0.00041380854 8.629841e-05
0000d0 c4 41 a9 b9 5d ea d4 39 0d ab 9b 39 d7 0e c0 39
       -0.0003228319 0.00040610405 0.00029691347 0.0003663215
0000e0 c1 f0 79 b9 d3 76 b9 39 a5 05 04 38 06 67 10 3a
       -0.00023836178 0.0003537448 3.147651e-05 0.0005508516
0000f0 3a fb 02 39 44 b9 f6 39 c7 39 00 b8 88 51 59 ba
       0.00012491355 0.0004705881 -3.0571387e-05 -0.0008290042
000100 ad 4d c1 b9 1a b7 4b ba 3e 8f a9 39 40 3e c7 39
       -0.00036869702 -0.00077711197 0.00032340916 0.00038002618
000110 c8 0e 40 3a ee b5 91 b9 41 98 ac b9 74 2f f8 b9
       0.00073264213 -0.00027792103 -0.00032919834 -0.000473376
000120 2e 69 b7 39 72 d4 01 ba 95 22 fe b9 ad 4f ae 39
       0.00034982845 -0.00049526163 -0.0004847242 0.0003324723
000130 07 d7 04 b9 fa be 83 39 7e f8 26 b9 92 cb eb 39
       -0.00012668605 0.00025128556 -0.00015923564 0.00044974365
000140 ba 54 d1 b9 da d3 c9 38 f3 d7 39 b8 7d 6f b6 39
       -0.00039926713 9.623887e-05 -4.4308556e-05 0.0003479681
000150 5e 35 2d 39 85 e1 b7 b8 38 ac e1 b7 35 b6 45 ba
       0.00016518447 -8.768126e-05 -2.6902286e-05 -0.00075421046
000160 46 9b 4d b9 71 fa 17 ba f5 dc bc 39 3c e9 0e 39
       -0.00019608167 -0.00057975115 0.0003602278 0.00013629062
000170 36 70 0c 3a 34 29 3e ba d1 d2 a4 38 61 46 0e 39
       0.0005357297 -0.00072540645 7.859397e-05 0.00013568393
000180 0a 27 ac b9 84 d2 35 3a 5e e7 79 3a 4e 38 0f ba
       -0.00032835483 0.00069359713 0.00095330726 -0.0005463407
000190 ea 92 f6 38 93 11 31 b9 83 fe 86 39 f1 25 33 3a
       0.00011757559 -0.00016886582 0.00025748098 0.0006833962
0001a0 94 72 0e 3a c9 3b 19 ba a2 09 05 3a bf d7 20 3a
       0.00054339436 -0.00058453955 0.0005074983 0.00061356643
0001b0 fe 57 f1 b9 f9 6f e1 b9 d5 f2 9f ba 74 80 b9 39
       -0.0004603266 -0.0004299877 -0.0012203107 0.00035381655
0001c0 f8 67 9f b9 c4 19 7a b8 50 06 86 39 ff 50 ab 39
       -0.00030404306 -5.962864e-05 0.00025563175 0.00032676008
0001d0 e2 5d 68 39 79 21 95 b9 73 c4 b8 b9 ad ad 2b ba
       0.00022160218 -0.00028444434 -0.0003524158 -0.0006549012
0001e0 94 db 33 3a 7f b2 da b8 be 07 d1 38 22 d0 3e 3a
       0.0006861028 -0.000104282975 9.967339e-05 0.0007278939
0001f0 4f 82 21 3a 04 24 99 38 9b a6 ad b9 0e f7 47 39
       0.000616108 7.302317e-05 -0.00033121262 0.00019070154
000200 87 ae 85 b9 73 01 4c 39 f7 86 19 3a fd de a3 39
       -0.0002549777 0.00019455496 0.0005856598 0.00031255922
000210 93 0b 2d 39 7f 96 15 39 c3 03 24 3a 58 8e a9 39
       0.00016502877 0.00014265811 0.0006256664 0.00032340246
000220 99 de 2d 39 c2 34 fc 39 f1 26 81 39 40 f4 b1 39
       0.0001658149 0.00048104493 0.0002463381 0.0003394205
000230 15 49 2c 3a ab c0 23 ba 78 8e 8e ba 8f 71 e9 b9
       0.00065721694 -0.00062466663 -0.0010876199 -0.0004452583
000240 ef 96 56 b8 ba ca 65 3a f0 5c d5 39 6d 99 db 39
       -5.1162144e-05 0.00087658654 0.0004069577 0.00041885246
000250 37 a4 42 39 ff b1 1f 3a 56 bf 4e ba 4c c5 21 ba
       0.00018562457 0.0006091892 -0.00078867876 -0.0006171062
000260 78 cf 81 ba 4e b3 ce 39 33 15 95 39 2a 8f ab 39
       -0.000990375 0.00039424974 0.0002843529 0.00032722327
000270 af 0f d2 39 06 06 06 3a 2b 7f 35 39 07 a8 0e ba
       0.00040066006 0.0005112592 0.00017308879 -0.0005441908
000280 94 1d 56 ba f8 51 49 ba 3d 87 2c b8 39 cd eb 39
       -0.00081678596 -0.0007679756 -4.1133946e-05 0.00044975596
000290 39 e7 b0 b9 c2 bf 2b ba 7a 23 f3 39 6c fc d8 38
       -0.0003374161 -0.00065517065 0.00046375004 0.000103467
0002a0 8b 46 ba 37 54 e9 87 3a a2 c2 46 ba 54 da e1 b9
       2.2205777e-05 0.001036922 -0.0007582103 -0.0004307801
0002b0 50 ce 23 3a 60 9e b1 b9 2b a0 cf b9 4e 33 1a 3a
       0.00062486995 -0.0003387807 -0.0003960145 0.0005882279
0002c0 b0 19 bc b7 2f e1 55 b9 e6 a0 27 39 3f 7c 86 ba
       -2.2423308e-05 -0.0002039715 0.000159863 -0.0010260417
0002d0 c1 37 05 ba 3a 00 80 39 92 5e e7 b8 53 d1 63 b8
       -0.00050818553 0.0002441423 -0.000110325534 -5.4315966e-05
0002e0 97 ac 0b 3a c5 f2 fc b9 f7 88 14 b9 52 85 65 3a
       0.0005328147 -0.00048246063 -0.00014165403 0.0008755523
0002f0 43 1d 28 b6 6c ba 73 3a 7f 3b 01 3a 49 89 96 39
       -2.5050983e-06 0.00092974934 0.0004929825 0.00028712515
000300 45 80 3d 3a 24 36 de 38 30 f8 8b b9 fe 31 0e 39
       0.00072288915 0.000105958694 -0.0002669706 0.00013560799
000310 59 7b 28 39 b8 9f d1 b9 9f 85 5b 3a 94 7a 94 39
       0.00016067679 -0.00039982586 0.0008374098 0.00028320088
000320 71 67 36 b8 44 38 b5 38 68 04 c5 b8 15 01 e3 b9
       -4.348852e-05 8.641233e-05 -9.394513e-05 -0.0004329762
000330 b3 e9 a7 b8 30 9b 9d ba bc 97 86 b7 59 88 0d 3a
       -8.0067104e-05 -0.0012024399 -1.6044702e-05 0.00053990405
000340 10 01 52 39 20 e6 94 b9 db 6a 2a ba 3a a7 7d ba
       0.00020027556 -0.00028400216 -0.0006500908 -0.0009676103
000350 1a bd fc b8 18 12 5e ba ac 68 b0 ba 08 f1 0b b9
       -0.00012051519 -0.0008471324 -0.0013458929 -0.00013345864
000360 7a cf 70 39 80 40 ca 38 e5 29 93 39 1e 65 a5 b9
       0.00022965475 9.644125e-05 0.0002806924 -0.0003154659
000370 2c e1 79 ba 86 d9 71 ba 71 2b 9d 38 4a 79 51 ba
       -0.00095321494 -0.0009225834 7.494435e-05 -0.0007990791
000380 bd 5d 2a 39 e1 aa ba b9 94 06 82 b9 fb 33 c4 b9
       0.00016247384 -0.00035604 -0.00024800433 -0.00037422762
000390 c2 ec 12 b9 86 ff c2 b9 63 ca b7 b9 ca bf b2 b9
       -0.00014011844 -0.00037192943 -0.0003505527 -0.000340937
0003a0 fc fb 35 ba 4e b8 0c b8 8c 91 8f 38 94 2e 3b b9
       -0.00069421506 -3.355025e-05 6.8458816e-05 -0.00017851061
0003b0 f5 91 bf 39 6b 1a 92 3a a3 3f f3 39 38 3a 6f 3a
       0.00036539105 0.0011146789 0.00046395985 0.0009125802
0003c0 7b 5a b8 39 1a d9 e4 38 a0 21 ff 39 0e 4a 90 39
       0.00035162628 0.000109123255 0.00048662443 0.00027520995
0003d0 3e 37 a9 b9 f1 24 0b 3a 4c c0 72 b9 dc 52 3f b9
       -0.0003227535 0.0005307934 -0.00023150555 -0.00018246047
0003e0 26 a0 83 38 e4 42 20 39 87 80 12 ba cc 02 13 3a
       6.276397e-05 0.00015283708 -0.000558861 0.0005608022
0003f0 2e 8a 5c 3a eb 1a 03 b9 df 85 b0 b9 6b 0b 62 ba
       0.00084129244 -0.00012503161 -0.00033669078 -0.0008622917

sequential/conv2d/BiasAdd/ReadVariableOp f4 [32]
000000 5d 8c ad 3a dd 83 2e be a6 fc 84 bd 95 06 4b be
       0.0013240684 -0.1704249 -0.06493501 -0.1982673
000010 80 8b 4e be 40 84 0e bd 31 08 4c bc 57 e9 d7 3c
       -0.20170403 -0.034794092 -0.012453125 0.026356382
000020 37 e9 22 3d 1e d5 1f 3d d0 39 05 be 5f 1e c6 ba
       0.039773192 0.039021604 -0.13010335 -0.0015115252
000030 9f a9 90 3c 38 ea c4 bc ee 96 1a 3b a6 66 19 bd
       0.017659007 -0.024037465 0.0023588496 -0.03745141
000040 f4 f8 2a bc d3 b1 e6 3b 84 1a 1a be 49 13 99 bc
       -0.010435332 0.0070402413 -0.15049177 -0.018685954
000050 80 4a 4b bd af af 9b bc 9e 09 71 bd f7 f0 92 bd
       -0.049631596 -0.01900467 -0.058847062 -0.07174867
000060 3f 52 85 bd eb 97 ad 3d 49 27 54 bd aa 69 95 3c
       -0.06509828 0.08476242 -0.051795278 0.018238861
000070 92 7e a3 bd 5a f5 df bd 63 d8 32 3d 11 b2 49 bc
       -0.07983126 -0.10935469 0.043663394 -0.012310521

sequential/conv2d_1/BiasAdd/ReadVariableOp f4 [32]
000000 f5 63 ba 3d 9c 84 25 3e 34 17 e7 bd 23 e7 1b 3d
       0.091010965 0.16163868 -0.112837225 0.038062226
000010 40 f1 89 bb a9 d0 e7 bc a9 33 02 3d f2 74 80 be
       -0.0042096674 -0.02829774 0.03178755 -0.25089222
000020 da a0 78 3c 6e 03 7a be 00 05 15 b8 a0 dd c7 bd
       0.015175069 -0.24415371 -3.5529025e-05 -0.097590685
000030 50 48 1b 3e 6a e5 89 bd 81 69 94 3d 1e 66 21 3e
       0.15164304 -0.067332104 0.07246686 0.15761611
000040 59 8a 1c be 65 1a 20 be e0 18 c2 3d e6 4f 97 3d
       -0.1528715 -0.15635069 0.09477401 0.07388286
000050 a6 f7 e6 3d 53 1d bb 3b f8 0e 9a 3d b9 e9 64 bd
       0.11277704 0.005710283 0.07522386 -0.055886958
000060 90 ad f3 b7 0a ee 32 bc 10 af 4d bd 78 c8 1c be
       -2.9048679e-05 -0.010921011 -0.05021578 -0.15310848
000070 66 f1 17 3e a7 b3 5d 3c 14 86 80 3c 35 6f 39 be
       0.1483818 0.013531602 0.015688933 -0.18108828

sequential/conv2d_2/BiasAdd/ReadVariableOp f4 [32]
000000 87 33 1c be 1d eb 01 3d 5d da 20 be 44 94 12 3c
       -0.15254031 0.031718362 -0.15708299 0.008946482
000010 2a 33 7c 3d b6 e3 02 3e 64 ad 09 be e4 dd 4c bd
       0.06157223 0.12782177 -0.1344505 -0.0500163
000020 9f da 38 bd d3 d5 81 bd 3a 05 91 3e 22 ec 9f 3d
       -0.04513037 -0.06339612 0.283243 0.07808711
000030 d7 85 49 bd c2 e2 24 be f3 a4 7a 3d 39 0b e5 3c
       -0.049199905 -0.16102126 0.061192464 0.027959453
000040 d0 90 9e bd e0 ed 7a bd 4b a9 9f 3d b3 ac 46 be
       -0.077424645 -0.06126201 0.07795962 -0.19401817
000050 2a 4a c7 bc 7b 9d 11 3e 86 ef ec bd 18 d5 99 3e
       -0.024327356 0.1422023 -0.11569123 0.3004539
000060 b8 96 81 be fa 0c b7 3d 63 6b 57 3e 57 11 22 3e
       -0.25310302 0.08938022 0.21037059 0.15826927
000070 56 62 f5 3c 27 f0 cb bc 04 94 c5 bd f6 a5 38 3d
       0.029954117 -0.024894787 -0.09647372 0.045080148

sequential/conv2d_1/Conv2D f4 [32, 3, 3, 32]
000000 08 47 2c 3d 1a eb a0 3d c1 bc f7 3c 84 62 85 3c
       0.04205993 0.07857342 0.030241372 0.016282327
000010 00 12 df bd 02 db ef 3c be 35 3e 3e 52 72 ef bb
       -0.10892105 0.029279236 0.18575189 -0.007307329
000020 e5 30 97 bd 50 02 14 3e e1 ce d8 3c 2e e7 77 bb
       -0.07382373 0.14454007 0.026465835 -0.0037827003
000030 28 98 ff 3c 1e 25 e8 be 23 52 02 3d 7e 5c f0 3d
       0.031200483 -0.45340818 0.031816613 0.117363915
000040 8e 05 b5 bd 22 a5 8b 3d 6e c8 33 bd 26 96 1e bd
       -0.0883895 0.06818606 -0.043892317 -0.03871741
000050 5d 9f 7f bd 8f 4c 18 be dd b7 b3 3d 0b 58 8b 3d
       -0.06240784 -0.14872955 0.087753035 0.06803902
000060 03 67 24 3d 28 45 60 be b6 78 92 bd 92 fc da bd
       0.040137302 -0.21901381 -0.0715193 -0.10692705
000070 a6 65 ea bc 0c b8 b0 bd d5 52 bf bc a6 5c 91 bd
       -0.028612923 -0.08628854 -0.023354927 -0.070977494
000080 6b e5 0a bd a1 3b ec 3d 6f f7 ac bd 32 ef 95 3b
       -0.033910196 0.11534811 -0.08445632 0.0045756334
000090 ba ec b6 ba d1 28 4d be d0 be 45 3e 23 dc 28 be
       -0.0013956048 -0.20035101 0.1931107 -0.16490225
0000a0 a7 5e a0 bd 5d 9b c4 be 3d 26 1f be fd d4 9a 3b
       -0.078305535 -0.38399783 -0.1554193 0.004725097
0000b0 da 2b a0 bc 5e 08 4e be 48 22 42 3c 17 dc 13 3e
       -0.01955216 -0.2012038 0.011848994 0.14439426
0000c0 25 1c 5a bd 2a 27 9d 3d 07 36 bd 3b ce 6b 42 bc
       -0.053249497 0.076734856 0.005774263 -0.011866523
0000d0 1a 73 b5 3c 51 e8 3f 3d 3e 61 10 3e dc 24 65 bc
       0.022149611 0.046852414 0.14099595 -0.013985839
0000e0 81 90 52 be 6e cc 8c be 80 2f a6 be e8 bb b5 bd
       -0.20562936 -0.27499717 -0.32458115 -0.08873731
0000f0 6f 8f 1f 3e 58 ad 05 be 34 05 0b 3d 08 e9 ab bd
       0.1558206 -0.13054407 0.03394051 -0.083940566
000100 35 b1 98 bd 55 a5 f6 3d f4 13 a1 bd 4c 8a 80 bd
       -0.074556746 0.12043253 -0.07865134 -0.06276378
000110 56 ba 5d bd d3 7e b4 3c b4 22 4e 3e 85 8b 24 be
       -0.054132782 0.02203313 0.20130426 -0.16068847
000120 d3 dc 23 bc a9 e0 96 be 1c 2d 6d 3e 44 cf 67 be
       -0.010001379 -0.29468277 0.23161739 -0.2263766
000130 dc 72 b6 bb 94 1a ee 3d 47 6d 8e bd a6 98 a8 3d
       -0.0055678915 0.11626163 -0.06954437 0.082322404
000140 b2 1c 7f be 90 b7 d1 bd 02 bd 60 3d ae 1f 92 bc
       -0.2491329 -0.1024009 0.054867752 -0.017837372
000150 5a 85 af 3c bd 47 d4 bd 0c 36 0e bd de 0a 09 be
       0.021425892 -0.103652455 -0.034719512 -0.13383052
000160 13 62 a6 bd e9 0d a3 bd b5 96 c8 be de 37 39 3d
       -0.08124175 -0.079616375 -0.3917748 0.045219295
000170 b1 f6 0c bd 13 84 03 bd a0 67 c2 bd 49 10 72 be
       -0.03441495 -0.032108378 -0.09492421 -0.23639025
000180 62 34 82 bb 44 24 ef bc 07 d0 ba 3d ff b8 86 3d
       -0.0039735297 -0.029192097 0.09121709 0.06578254
000190 d1 12 82 3d 43 b2 37 3d 84 93 b2 3d b6 98 c0 bd
       0.06351245 0.044847738 0.087195426 -0.09404127
0001a0 54 cc e2 bd fb 6d 66 3e 87 47 08 3e 02 ae 18 3e
       -0.11074129 0.22502892 0.13308536 0.14910129
0001b0 63 e8 aa 3d 1b 96 87 be a6 92 1d 3e 76 28 95 3d
       0.083451055 -0.2648171 0.15387973 0.07283108
0001c0 89 c1 82 3b a8 66 96 bd 45 93 94 3b 92 6c 09 bc
       0.0039903563 -0.07343799 0.0045341575 -0.008387702
0001d0 25 f2 cd bc 77 f8 1c be fa 44 56 bd 2c 87 4a 3e
       -0.025139878 -0.15329157 -0.052311875 0.19778126
0001e0 af 49 fa bd df 2b 8b be 2a ec f9 3d fd 1a f4 3b
       -0.12221085 -0.27181908 0.12203248 0.0074495063
0001f0 d3 a9 4b 3d f3 0f 2e be 2f d6 b9 bd 43 48 fe bc
       0.049722504 -0.16998272 -0.090740554 -0.031040316
000200 53 8d 42 bd d9 62 a1 3d 9a 22 62 bb 01 3b d3 3c
       -0.04749806 0.07880182 -0.0034505487 0.025784971
000210 92 fa a2 bd 1b 81 a5 be 09 45 3a 3e 23 40 39 be
       -0.07957949 -0.32325062 0.18190397 -0.18090872
000220 2f 8e 04 be df 00 82 be f3 ef 02 be 03 85 95 3d
       -0.12944864 -0.2539129 -0.12786846 0.073007606
000230 62 7f 0c be 37 2d ea bd 77 0f 28 bd 86 3f d7 bd
       -0.13720468 -0.11434405 -0.041030373 -0.10510163
000240 eb 88 18 be f9 22 66 be e8 e2 6f bd c2 3e 1f be
       -0.1489598 -0.22474279 -0.058566004 -0.15551284
000250 1b 95 9f bd 30 27 54 3b e3 ad b3 3d 23 3b 85 be
       -0.077921115 0.003237199 0.08773401 -0.2602168
000260 a9 92 c3 bd 86 e5 d7 bd b8 80 4d be 6b c9 61 3d
       -0.095494576 -0.10541825 -0.20068634 0.055123728
000270 a7 d2 fb bd cb 60 4f be 9d ec b2 bc ab 4a 81 bc
       -0.12296038 -0.20251767 -0.021841342 -0.015782675
000280 d1 e0 dd bd 75 bf ea bc 60 35 3f be 64 50 00 be
       -0.10833896 -0.028655747 -0.18672705 -0.12530667
000290 32 33 6e be b7 5e 8d be c7 d7 68 3e f9 7a 53 be
       -0.23261717 -0.27611324 0.22738563 -0.20652379
0002a0 39 3e c2 be d4 ee 36 be 05 97 91 be f9 ad 47 be
       -0.37938097 -0.17864543 -0.2843553 -0.19499959
0002b0 93 51 6a be 5d e0 bc bd e7 01 e0 bd 4a f7 9d 3d
       -0.2288268 -0.092224814 -0.10937863 0.07713182
0002c0 0a ef eb be cf 78 98 be 86 97 34 3d a3 b0 ee 3c
       -0.4608081 -0.2977967 0.044089817 0.029136961
0002d0 ac 9d e8 bd e3 c4 1b bd 84 da f2 3c 33 2b 9a be
       -0.113581985 -0.038029563 0.029645212 -0.30111083
0002e0 0e 76 33 be b3 73 a0 be e2 18 38 be 16 45 dc bd
       -0.17525503 -0.31338271 -0.17978242 -0.107553646
0002f0 49 f1 6e be eb e3 17 be 43 0a f1 bd 34 f0 41 be
       -0.2333423 -0.14833038 -0.117695354 -0.18939286
000300 71 c9 08 3e bd 0e d0 ba 4f 2f 69 3d 97 39 5e 3e
       0.13358094 -0.0015873533 0.056929883 0.21701656
000310 5b c0 1b 3e de 6c e0 3d 91 f2 ca 3d 57 80 11 3e
       0.15210097 0.10958265 0.09909547 0.14209114
000320 60 2e de 3d 9b e2 11 3e ee d8 25 3e 72 aa 6f 3e
       0.10848689 0.142466 0.16196033 0.23404863
000330 36 1f 6c 3e fa 56 e7 bd f8 e5 2a 3e 1b 09 12 3e
       0.23058781 -0.11295886 0.16689289 0.14261286
000340 39 35 aa 3d 63 12 1c bc 53 49 09 3e 67 1e 58 bd
       0.08310933 -0.009525868 0.13406877 -0.05276337
000350 4e b2 ee 3d 7b ba a6 bd dc 3a 96 3d ff 69 7c 3d
       0.11655103 -0.08141037 0.07335445 0.061624523
000360 8c 1d 99 bc 57 93 1c bc b0 c6 30 3e 64 e4 5f 3e
       -0.018690847 -0.009556613 0.17263293 0.21864468
000370 28 45 ac 3e db 48 a0 3c 1d 0d 3d be f5 ed 02 be
       0.33646512 0.01956599 -0.18462034 -0.12786086
000380 a7 a4 40 bd e6 55 dc 3d 19 14 18 be ff b9 bc 3d
       -0.047032025 0.10758571 -0.14851417 0.092151634
000390 0b 1e 01 be 1c 80 8b be fb 49 d2 3d a0 a1 b4 bd
       -0.12609117 -0.27246177 0.10268017 -0.0881989
0003a0 3a ab 17 3d eb cd 6d be 3d fa b0 bb a2 32 9a 3c
       0.03702853 -0.23223083 -0.0054009245 0.018822972
0003b0 50 84 11 bd db ea 82 be a5 e4 65 bd bb e1 d4 bd
       -0.035526574 -0.25569806 -0.056126256 -0.10394617
0003c0 e2 5b d4 bd bb 88 74 be 49 43 02 bd 4a 13 1f be
       -0.10369088 -0.23880284 -0.03180245 -0.15534702
0003d0 af ca b2 bd ae 74 05 3d c9 6e c4 3d 71 16 02 be
       -0.08730065 0.032581978 0.09591443 -0.12703873
0003e0 2b 5f c3 bd 9d 79 56 be 37 fb b3 be f2 3e 08 3d
       -0.09539636 -0.2094483 -0.351526 0.033263154
0003f0 38 fc 0a 3e 8b d1 b5 3b d7 eb 51 bd 60 1a 2d be
       0.13572776 0.005548661 -0.051250305 -0.16904593

sequential/conv2d_2/Conv2D f4 [32, 3, 3, 32]
000000 ea 57 f8 bd 37 21 91 3e 02 81 3e be ac 1b 04 3e
       -0.12126143 0.28345653 -0.186039 0.12901181
000010 1c 84 8c be 24 05 7d 3d cd c2 26 bc 46 eb ba be
       -0.2744454 0.06177248 -0.01017828 -0.36507624
000020 b4 48 f9 bd 91 67 b4 be cd 82 22 bd 6c 10 17 be
       -0.1217207 -0.35235265 -0.039675523 -0.14752358
000030 ab 79 50 3d 8f 27 2e bd e6 09 ae 3e fa 17 97 3c
       0.05089728 -0.042518195 0.33991927 0.01844405
000040 06 42 cb bb d6 db cb bd 54 c5 00 bd a5 6e 47 be
       -0.006202939 -0.0995404 -0.031438187 -0.19475801
000050 c9 0a c7 bc e4 8a c1 bc a6 53 7d 3c e1 b3 30 3c
       -0.024297135 -0.023625799 0.015461838 0.010785074
000060 0e 73 fe 3c 11 03 b5 3e 5a 77 51 be 6b 85 aa be
       0.031060722 0.35353902 -0.20455685 -0.33304915
000070 87 1c 0c bd ff 2e 80 3d 90 04 6e 3d 92 f5 78 be
       -0.034206893 0.06258964 0.05810982 -0.24312428
000080 52 a0 b5 bc f1 d8 5e 3e 88 69 5c 3d de 88 36 3d
       -0.022171173 0.21762444 0.05381158 0.04456412
000090 43 cd 24 be e6 8f 01 bd dc 97 04 bc 06 05 5c be
       -0.16093926 -0.031631373 -0.008092847 -0.21486291
0000a0 88 c7 c1 3c a0 58 1c 3e 37 56 14 3d 09 c7 ad bc
       0.023654714 0.15268183 0.036215033 -0.021213071
0000b0 08 4e be 3d 63 a6 d0 3d 6f 08 7d 3e 24 42 8d be
       0.09292227 0.10187986 0.24710248 -0.27589524
0000c0 02 3b ba 3d 57 fd 5c 3d 5c 86 39 3e 74 87 cc 3c
       0.09093286 0.05395254 0.1811766 0.024966933
0000d0 9a fa 19 bd d9 b0 0e 3c 70 84 9b bc 77 48 e9 bc
       -0.037592508 0.008709156 -0.01898405 -0.028476937
0000e0 21 b5 0f bd d5 6f 2d 3e c2 cc 8b bd 6f cb 00 be
       -0.035084847 0.16937192 -0.06826164 -0.12577604
0000f0 77 cb 01 be 1a 6d 04 be d1 e5 bf bb 70 8e 4f 3c
       -0.12675272 -0.12932244 -0.0058562537 0.012668237
000100 9c 4c c7 bd 37 7a 29 bc 5a 38 57 3e 8f dc 33 be
       -0.09731409 -0.01034408 0.2101759 -0.17564605
000110 1f 59 d4 3d 79 12 2a 3a 79 dd 8c 3c 03 22 e5 bc
       0.10368561 0.0006487738 0.01719545 -0.02797032
000120 8d 7c 99 3d 6b f0 64 3d ef a9 c3 3d 13 c5 32 3d
       0.07494459 0.055893343 0.09553897 0.043644976
000130 cb 78 6c 3e 12 ed b3 3d ef 40 c8 bb 9a 4d 70 be
       0.23092954 0.08785452 -0.0061112563 -0.23467103
000140 6e 66 a0 3c ce 88 9b be 8f 87 09 3e be d4 b0 bd
       0.019580092 -0.3037781 0.13430618 -0.08634327
000150 bd a4 47 3d 52 f0 13 3d dc b6 3b bd fa 83 a1 3d
       0.04874109 0.03611786 -0.045828685 0.07886501
000160 94 a2 7c 3d 22 d8 56 3e 7d 1a e0 bd 28 b0 13 3e
       0.061678484 0.20980886 -0.10942552 0.14422667
000170 10 09 cc 3d 25 77 46 ba 02 2f 48 3e ea 08 12 3e
       0.09962666 -0.00075708545 0.19549182 0.14261213
000180 36 ee 65 be 3f e1 ff 3e 6b 61 63 bc 6d 23 96 3e
       -0.22454152 0.49976537 -0.013878207 0.29323903
000190 43 7e bd be 55 b1 39 bc 8c 75 1d be df 33 c7 bd
       -0.37010393 -0.011333783 -0.15376872 -0.097266905
0001a0 a6 90 ff bd f5 cb 89 be f0 2d a5 be e7 ff d0 bd
       -0.124787614 -0.2691342 -0.3226161 -0.102050595
0001b0 80 6c 8a 3b b8 da 34 be 0b c1 69 3e 87 58 36 3d
       0.00422436 -0.1766156 0.22827546 0.04451802
0001c0 4d a3 0f be 84 e2 5f 3d 7e 08 01 3d 05 ac 48 be
       -0.14027138 0.05465938 0.03150224 -0.1959687
0001d0 90 7e c2 bd 4c 29 05 3e 59 52 02 bc 8a 68 9b b9
       -0.09496796 0.13004035 -0.0079542035 -0.00029641791
0001e0 9d cc a1 3c a6 14 60 3e 23 6c 1f be 62 a2 23 be
       0.019750888 0.21882877 -0.15568595 -0.15979913
0001f0 63 8f 24 bc 6a bc 91 bc 6a 33 db bd a1 a7 2b bd
       -0.010043952 -0.017790038 -0.10703166 -0.04190791
000200 ca 8c 7c bd ea 28 78 3e 89 40 c1 3d 90 8e c2 3e
       -0.061657704 0.24234357 0.09436137 0.37999392
000210 ab 41 19 3d 0e 85 25 3c e2 19 17 3e c0 12 3e be
       0.03741614 0.0101025235 0.14755967 -0.1856184
000220 fd d0 b6 bc 3c ca ab 3c d5 d4 15 be 8e a4 fe 3d
       -0.02231645 0.020970456 -0.1463197 0.1243373
000230 f7 5b 87 3c a1 99 cf bc 5a 97 5a 3e b4 e1 a8 3d
       0.016523344 -0.02534181 0.21346799 0.082461745
000240 98 18 f2 bb 6e 24 43 3e 28 a7 38 3e 57 4e 0b be
       -0.0073881857 0.19056866 0.18032515 -0.13604103
000250 4f e6 32 3d ab b0 ae 3e e1 b1 46 be bd 09 47 3d
       0.04367667 0.34119162 -0.19403793 0.04859327
000260 8d 83 c6 3c c4 73 1f 3e 0c 27 de bd cd 88 ba bd
       0.02423265 0.15571505 -0.10847291 -0.09108124
000270 1e 6b bf be 50 96 25 3e 2f 77 dc bd 19 7e 14 bd
       -0.3738641 0.16170621 -0.1076492 -0.03625307
000280 b9 cb a6 bc 19 56 3f 3e 7c c2 94 3e 0f 0a 99 3e
       -0.020360814 0.18685187 0.2905463 0.29890487
000290 e5 8e ca 3c b8 7c 4e 3d 49 55 7b be 5c 2c b1 3d
       0.02472634 0.05041191 -0.24544252 0.08651039
0002a0 b5 6f 18 be 12 95 b3 3d 9c 9f e4 bc 4b 67 9c 3e
       -0.14886363 0.08768667 -0.027908139 0.30547556
0002b0 89 68 8a 3d b4 8d c5 3c 5c cd 03 3e 14 f9 f5 3d
       0.0675822 0.02411542 0.12871307 0.120103985
0002c0 62 49 82 3d 4a 2a 93 be b9 8f 0d 3d d3 9a ce bc
       0.06361653 -0.28743201 0.034560893 -0.02522031
0002d0 ba 0a 4a be fc 0b f2 bc 7c c1 72 3d 8c 0d 52 3d
       -0.19730654 -0.02954673 0.059266552 0.05128245
0002e0 a7 99 41 3e b0 45 5d 3e f7 93 a6 bd 9b bd b8 3d
       0.1890627 0.21608615 -0.08133691 0.090205394
0002f0 d5 e2 50 be bf 5e a5 bd c8 77 c0 b9 6e 32 83 3e
       -0.2039903 -0.08074712 -0.00036710338 0.25624412
000300 59 74 70 be 39 ad 61 3e e6 f6 a6 3c 62 b2 d2 3c
       -0.23481883 0.22038735 0.020381402 0.025719825
000310 e6 59 f4 bd 2f 44 8d 3d 97 3a 52 be ec c0 e6 bd
       -0.11931209 0.068977706 -0.20530163 -0.11267266
000320 b4 7c 8d be 9c f8 16 be a6 42 bc bd fa 04 f4 ba
       -0.27634203 -0.14743274 -0.091924 -0.0018617206
000330 c7 74 be 3d 6f ad 20 be 2c d9 af 3e ff 60 b1 bd
       0.09299617 -0.1569116 0.34345376 -0.08661079
000340 1e 66 5c be 4b 30 14 bd 08 05 25 bd 67 ac 40 bb
       -0.2152333 -0.03617887 -0.040288 -0.0029399635
000350 2f ac ec bd 29 24 1f bd d4 ea 24 be 63 b7 3f 3d
       -0.11556279 -0.038852844 -0.16105205 0.04680575
000360 48 0d 97 bd f5 eb 33 3e 44 f8 12 be f3 f2 1d be
       -0.0737558 0.17570479 -0.14352518 -0.15424709
000370 0e 21 23 bd 2c 30 25 be 98 92 24 be 1d c3 16 be
       -0.039826445 -0.16131657 -0.16071546 -0.14722867
000380 9c 01 c5 be 88 89 b8 3e ad 5c 11 3e c7 10 ad 3e
       -0.3847779 0.36042428 0.14195509 0.33801863
000390 55 88 91 ba d4 42 f8 bc 8a af 0e 3d 99 72 7f 3d
       -0.0011103252 -0.030305304 0.034835376 0.06236515
0003a0 6c 49 dd be 60 f6 97 3d 76 9a db bd c1 81 d2 bd
       -0.4322008 0.07420039 -0.107228205 -0.10278655
0003b0 2a 0e b6 3d c4 ca b8 bc 0f 71 33 3e 79 ec 90 bc
       0.0888942 -0.022557624 0.17523597 -0.017690884
0003c0 6b f1 48 3c 9c 10 d0 bd 80 0d e2 3d af 24 ad 3d
       0.01226459 -0.10159418 0.11037731 0.084542625
0003d0 71 bc c3 bd 29 c6 8d bc 86 b7 9f bc bd 24 59 bc
       -0.09557427 -0.017306404 -0.01949669 -0.013253388
0003e0 76 1f 7f bd b1 cf 7c 3d 4c b1 66 3c 90 3d d8 3d
       -0.062285863 0.061721507 0.014080357 0.10558617
0003f0 99 b1 99 bd bd 2e bc 3d 3f 96 b8 3d dc d0 98 bd
       -0.07504577 0.09188602 0.09013032 -0.07461712

sequential/dense/BiasAdd/ReadVariableOp f4 [128]
000000 a2 31 7b bd 15 9f c7 bc 02 8b 04 be 7d 12 66 3e
       -0.06132663 -0.024367848 -0.12943652 0.2246799
000010 ca 33 56 be 62 92 00 bd 7b 6c 8c bc 27 cd 9a bc
       -0.20918193 -0.0313896 -0.017141571 -0.018896652
000020 c6 fb 96 bc 88 5f 41 bc 38 db a6 bd 30 aa d1 3d
       -0.018430602 -0.011802562 -0.081472814 0.10237539
000030 0a cb 23 3e 53 84 4f bd 44 d7 a0 bc 68 5a 2d bc
       0.15995422 -0.050663304 -0.019633897 -0.010580637
000040 51 6f 57 3c b6 94 af bc ae 28 7c bc 44 3f a9 3e
       0.0131490985 -0.021433216 -0.015390558 0.3305608
000050 24 59 f1 bc a0 e3 0f 3d 7b 38 8d bc 0b b1 8d bd
       -0.02946145 0.03512919 -0.017238846 -0.06918534
000060 bb 77 c0 bc 0b 25 0e bd 63 86 c7 bd 70 ab 0c bd
       -0.023494592 -0.034703296 -0.09742429 -0.034343183
000070 7a 99 41 3e 1d 00 6d bd b4 94 5f bd 73 13 0f be
       0.18906203 -0.057861436 -0.054585174 -0.13972263
000080 e8 2a c8 bc 32 4f 45 bd 7c af 00 bd ce 7a a4 3d
       -0.024434522 -0.04817123 -0.031417355 0.08031236
000090 ae 30 a1 3e 2a 27 f2 bc 8d 3b 00 3e d2 68 3e bd
       0.31482452 -0.02955969 0.12522717 -0.046486683
0000a0 89 87 3f bd 73 fe 15 bc 79 cd 52 bc e5 1d 49 3c
       -0.046760116 -0.009154904 -0.012866371 0.012275194
0000b0 09 c3 17 bd ff 9a 79 be d3 52 44 bd d3 0f c1 bc
       -0.037051234 -0.24375533 -0.04793055 -0.023567116
0000c0 77 47 1f 3e 8c 58 8a 3e 12 55 50 3e e3 ee 8a 3e
       0.15554605 0.2702068 0.20344952 0.2713538
0000d0 a9 78 81 bc c2 fa 26 bc cf b1 31 3e 41 13 86 bc
       -0.015804606 -0.010191621 0.17352985 -0.016366603
0000e0 1a 93 e7 3d b1 88 a3 bd dc c2 d6 bd 15 db cd 3d
       0.11307354 -0.07985056 -0.10486385 0.10051552
0000f0 5f a8 e3 bd 71 37 22 bd 3d fe 03 bd a6 06 08 bd
       -0.111160986 -0.039603654 -0.032224882 -0.033209465
000100 1a 72 12 bd 01 7c 38 bd 4e bf c8 bc b7 28 23 bd
       -0.035753347 -0.045040134 -0.024505284 -0.03983375
000110 f3 27 59 bd 69 4f 06 bd 41 e7 5c 3e 32 08 82 3d
       -0.053016614 -0.032790575 0.21572591 0.063492194
000120 c8 70 95 bc a6 4d da bc 02 be c7 bc da 25 25 3e
       -0.018242255 -0.026648354 -0.024382595 0.1612772
000130 4e b4 85 3e a2 ef 1f bc 91 b8 97 bc 94 67 4a 3c
       0.26114124 -0.009761723 -0.018520625 0.0123537965
000140 fc da 40 bd ec 63 92 3c 96 9e 39 bd d2 34 32 bd
       -0.04708384 0.017869912 -0.045317255 -0.043507405
000150 01 ca a5 bc 89 13 87 3e 27 fd 6d bc ef 4c 43 3b
       -0.020237925 0.26382092 -0.014525688 0.0029800495
000160 13 b3 11 be 88 36 90 ba cf 65 29 3b 04 2c 7d bc
       -0.14228468 -0.001100258 0.0025848036 -0.015452389
000170 8d 95 bc 3d 0f 47 77 bc 07 45 4a bd 83 84 73 bd
       0.09208212 -0.015092625 -0.049382236 -0.059452545
000180 f0 b6 ef bc 15 d4 98 be fe ea 33 bd 27 51 84 bb
       -0.029262036 -0.29849306 -0.043925278 -0.0040379944
000190 a7 51 f6 bc 7a a1 32 3e e2 2f 2f bc 7d c1 c4 bc
       -0.030068232 0.17444411 -0.0106925685 -0.024018044
0001a0 d6 0b 22 bd 57 d8 59 3d bd 03 ba 3c d7 f9 6a 3d
       -0.03956207 0.053184833 0.02270686 0.057367172
0001b0 16 af 9a bc 0b 6a f8 3c 57 1d 23 be a0 4a 89 3e
       -0.018882316 0.030324003 -0.15929161 0.26814747
0001c0 6f 63 fc bd e6 1c 31 be b1 ec ad bc a6 98 b3 3d
       -0.12323653 -0.1729618 -0.021231027 0.0876935
0001d0 99 f0 3d bd 38 eb 9f bc a7 4f 0e 3e f8 c1 79 3c
       -0.04637203 -0.01952134 0.13897572 0.015244
0001e0 2d ab d4 bd 9d 24 66 bc 75 73 3a bd f1 5f 4f 3e
       -0.10384212 -0.014046815 -0.045520265 0.20251442
0001f0 40 b9 e5 bc 3b d6 d5 3d 0c 79 bb 3d 4a 91 6c bc
       -0.028042436 0.10441252 0.09153947 -0.0144389365

sequential/dense_1/BiasAdd/ReadVariableOp f4 [11]
000000 fc 39 c4 be ad aa 2d be 69 d2 49 bc fb 43 e7 bc
       -0.3832549 -0.16959639 -0.012318232 -0.028230658
000010 05 ae 13 bc af 06 ef 3d 38 15 91 bb bb a9 2a bc
       -0.009013657 0.11671197 -0.0044275783 -0.010416443
000020 a0 84 8b 3e 4e b2 33 3e 38 9c e3 bd
       0.27249622 0.17548487 -0.11113781

sequential/dense/MatMul f4 [128, 1152]
000000 e3 14 74 bd c2 bb e4 bd 6c 7c 58 3d 02 07 b2 3d
       -0.05959023 -0.111686245 0.052853033 0.08692743
000010 20 74 79 bd e8 29 ff bc 16 6c a8 3d 7b bf 39 3d
       -0.06090176 -0.031147912 0.08223741 0.045348626
000020 0e 16 7e 3d d6 c8 9c bd 18 8f ff bc 79 c9 16 be
       0.06203275 -0.07655494 -0.031196162 -0.14725293
000030 69 2d 29 3e c4 c1 90 3e 1b b7 48 bb f3 0b 34 bd
       0.16521229 0.2827283 -0.0030626717 -0.04395671
000040 0e 7f da bd 38 38 f2 3d 7a ba ec 3d 25 92 82 bd
       -0.10668765 0.11827129 0.11559005 -0.06375531
000050 2b 77 7e bc d4 84 bd bd 58 11 78 bc 0d 3b 22 3e
       -0.015531342 -0.092538506 -0.015140854 0.15842839
000060 74 bd 86 3d 1a 18 3e 3d d0 94 fb bd 87 48 01 3d
       0.06579104 0.046409704 -0.12284243 0.031563308
000070 2e dd df bb 61 46 90 bd 05 b2 d6 3c 1c 6f b1 3d
       -0.0068317866 -0.07044674 0.026207933 0.086637706
000080 e7 f0 f6 bd 47 ab cc bd 31 64 36 be f9 d3 d4 3c
       -0.12057667 -0.09993606 -0.17811657 0.025979983
000090 3a f4 12 3d 96 0f 02 bd 86 15 21 bc 4b 19 06 bb
       0.035877444 -0.031753145 -0.009831792 -0.0020461853
0000a0 f0 f9 de bc 77 80 26 3d d7 28 3a 3e 5d 9d 9b 3c
       -0.027218789 0.040649857 0.18179642 0.018995935
0000b0 17 04 d3 bd 17 c6 a2 3e fd 26 97 3d 06 61 4f be
       -0.103035145 0.31791756 0.07380483 -0.20251855
0000c0 ed 7b 58 3d cd 2a 9f 3c fa 01 e3 bc 5b b6 59 be
       0.05285256 0.019429589 -0.027710903 -0.2126097
0000d0 91 f4 13 3e 14 f9 30 bd 76 a8 80 3d d2 80 36 3d
       0.14448763 -0.04320629 0.062821314 0.044556446
0000e0 89 28 1a be d6 79 45 3d 5a 4e ab 3d 62 d6 fc bc
       -0.15054525 0.048211895 0.08364554 -0.030863944
0000f0 59 90 f5 bc 8d 57 03 bd 10 e8 2b be d8 fc 90 bb
       -0.029976057 -0.032065917 -0.16787744 -0.0044246726
000100 28 eb 04 3e dc 01 72 bd 8c 38 5e be 89 d4 e7 bc
       0.1298033 -0.059083804 -0.21701258 -0.028299587
000110 e4 ae b7 bc fd a5 65 3e 15 f0 16 3e b7 16 00 be
       -0.022422262 0.22426601 0.14740022 -0.12508665
000120 6e 51 29 3d 8c c4 46 3d 31 d1 ec 3c 33 a6 9d 3d
       0.041337423 0.048527285 0.028908344 0.076977156
000130 1e e5 3e bd 20 6c e8 3c 8a 7c 85 3d fb df d2 bd
       -0.046605222 0.02837187 0.065178946 -0.10296627
000140 48 46 9e 3d 3d de 63 bd 62 a0 c4 bd e5 36 43 bc
       0.07728249 -0.055631865 -0.09600903 -0.011914943
000150 3b 0d 09 3e f8 b5 4c 3d 38 34 3d 3d c1 68 28 bd
       0.13383953 0.049978226 0.046192378 -0.041115526
000160 66 c4 15 3d 43 4f 95 be a6 6f 81 3e 56 3f f0 3d
       0.036564253 -0.29162034 0.25280493 0.1173083
000170 ea 37 f2 bd 9c f2 73 bd 3f 67 0d 3d 8e 85 92 bc
       -0.11827071 -0.059557542 0.03452229 -0.01788595
000180 7c 1f 75 bc 73 46 0b be 44 00 8a 3c b9 0a 58 3e
       -0.01496112 -0.13601093 0.01684583 0.2109784
000190 72 7a 16 3e 69 5f ea 3d 79 c3 61 3d da b6 f6 bd
       0.14695147 0.11443979 0.055118058 -0.12046595
0001a0 64 dc 06 bd b5 05 8c bc 3d 39 05 be 9d 37 f9 bd
       -0.032925025 -0.017092565 -0.13010116 -0.121688105
0001b0 50 fa 11 be 15 04 a6 bc 17 40 2c 3d 94 75 f2 3c
       -0.14255643 -0.020265618 0.04205331 0.029597081
0001c0 2c 57 45 bd 06 69 12 3e 96 33 b0 bd 56 fa bb bd
       -0.048178837 0.14297876 -0.08603589 -0.09178607
0001d0 a3 a0 bc 3c a0 41 23 be f7 09 3c 3e 2f 0b 01 be
       0.023025816 -0.15943003 0.18363176 -0.12601922
0001e0 83 22 4f 3d 60 72 77 be 4e 74 4d 3e fa b4 26 3e
       0.050570022 -0.24164724 0.20063898 0.16279975
0001f0 bc 5b c7 3d 48 c5 56 3c b9 5a 16 bd b0 9c a4 3c
       0.09734294 0.013108559 -0.036707614 0.020094246
000200 4c 5a b0 3c 45 0d b4 3c 07 0b 01 3e 0e f4 5e bd
       0.021527432 0.021978984 0.12601863 -0.054431967
000210 a5 90 3a 3e 07 37 b3 bc 8f ca 23 3d 88 a3 21 be
       0.1821924 -0.021876825 0.039988097 -0.15785038
000220 58 51 ee 3c bd 2d d3 bc 43 df a4 bd 3a 10 8d be
       0.029091522 -0.025778646 -0.08050396 -0.27551442
000230 e1 a6 12 3d dd 2f a5 bc 10 a8 25 be 49 a2 9c bd
       0.03580368 -0.020164425 -0.16177392 -0.07648141
000240 5f ad 9c bd 32 5e cb 3d 64 9e 33 3d b5 72 28 3e
       -0.076502554 0.09930076 0.043852225 0.16450007
000250 95 90 b3 3d 8c 19 67 bd 1e 5d d8 3d e1 04 34 3b
       0.08767811 -0.056420848 0.10564636 0.0027468728
000260 38 a5 0e bd b1 f0 48 be 8f 4f f0 3d 97 36 94 3d
       -0.034825534 -0.19623066 0.117339246 0.07236975
000270 c3 85 cd bd 1f c5 86 bd a4 2a 8c 3d f0 40 f4 3d
       -0.10035279 -0.065805666 0.068440706 0.11926448
000280 b4 22 bb bc b0 fa 15 3e 08 d7 09 be 89 a6 76 3c
       -0.022843696 0.14646411 -0.13460934 0.0150543535
000290 73 91 a5 3d e0 d3 a4 bd b9 c1 99 3e bd 19 b6 3d
       0.08084383 -0.080482244 0.3003061 0.08891628
0002a0 a0 07 e4 bc f8 ca fb bc 33 f5 70 be e1 ad 12 be
       -0.027835667 -0.030736431 -0.23531036 -0.14324142
0002b0 a3 88 28 3d 49 d4 3d 3e 87 2e 81 3d b4 e4 8a 3d
       0.041145932 0.18538012 0.063077025 0.06781903
0002c0 9a 33 b8 3d 28 82 18 3e 76 d8 39 3e 06 b3 cf 3c
       0.08994217 0.148934 0.1814898 0.02535392
0002d0 f8 de 22 be 64 dc 80 bd 09 9b 05 3d 2b f0 1c 3e
       -0.15905368 -0.06292036 0.032618556 0.15325992
0002e0 9b 6b e5 bd 4f be 99 be fc 47 f4 bd 45 33 34 3d
       -0.11202165 -0.30028006 -0.119277924 0.043994207
0002f0 7f 3e f5 bd 6d ef ea bd 3e 63 57 3d 91 2c c9 3c
       -0.11974811 -0.11471448 0.05258488 0.024557384
000300 29 7e a0 bd 0b be 3e 3b a6 32 6f be 93 2a 5f 3e
       -0.07836563 0.0029104974 -0.23359165 0.21793585
000310 84 e0 c8 3d 65 64 8c 3d aa eb 23 3e 3f fb 2b 3d
       0.09808448 0.06855086 0.16007867 0.041987654
000320 26 58 1c 3d 09 0a 91 3b 4d 94 70 3d eb 89 86 be
       0.038170002 0.004426245 0.05873518 -0.26277098
000330 2d 3d 30 3d 11 24 97 3d b9 42 44 3e c6 72 e5 bc
       0.04302709 0.07379926 0.19166078 -0.02800883
000340 04 e0 54 3d c4 7f 8d bd 76 7a 36 bd 28 77 fa 3d
       0.05197145 -0.06909135 -0.04455038 0.122297585
000350 1b 09 b8 3c 3d a0 cf bd d9 dd c0 bb 18 39 47 3e
       0.02246528 -0.10137985 -0.0058858213 0.19455373
000360 0b 19 2c be 4d 0c 9b bd c0 bf 02 be fe 78 fd bd
       -0.16806428 -0.075707056 -0.1276846 -0.12376593
000370 d5 a1 a9 bd 97 f8 4f bd 8f 7c 9f 3b e6 69 5d 3e
       -0.0828282 -0.050774183 0.0048671435 0.21622428
000380 e7 b8 f8 bd da 6d 35 3e fd dc 61 bd 66 63 59 3c
       -0.12144642 0.17717686 -0.05514239 0.013268327
000390 85 f1 db 3b 4b 3c 93 bd 78 27 63 bb 32 da ae bc
       0.006712141 -0.07189234 -0.0034660976 -0.021344278
0003a0 4e 3a 2d 3d 8c 9b 8b 3d 1a ee 91 3d 75 40 c4 bb
       0.04229193 0.068167776 0.071254924 -0.005989129
0003b0 db 6d fb bc 8f 33 b5 3d db 03 97 be 1f 8e c7 3d
       -0.030692032 0.08847725 -0.2949513 0.09743904
0003c0 00 6e b7 bd 9b 3d 14 be 3a cf a0 39 dd c6 3a bd
       -0.08956528 -0.14476626 0.00030671974 -0.045599807
0003d0 4b 43 2d 3d c3 04 54 bc 40 e8 53 3d 59 08 5c 3d
       0.042300504 -0.012940588 0.051735163 0.0537189
0003e0 b3 c7 ad 3c a7 c7 89 3a 42 21 17 3e aa e0 0c bd
       0.021213388 0.0010511772 0.1475878 -0.034393944
0003f0 61 fb 9a 3d 47 5d 91 bd b6 5a bf bd ee b2 2f 3d
       0.07567478 -0.07097869 -0.093434736 0.04289525

sequential/dense_1/MatMul f4 [11, 128]
000000 00 5c c4 3b c8 eb 25 be fc f4 17 3e 26 32 bf bd
       0.0059924126 -0.16203225 0.14839548 -0.09335737
000010 6e f2 b0 3d e9 32 f1 bc 93 e7 ce 3b d6 aa b9 3c
       0.0863999 -0.029443221 0.006314227 0.022664469
000020 c2 00 2e 3e a9 de 47 3e 51 7f b9 3d 12 a8 7b 3e
       0.16992477 0.19518532 0.09057487 0.24575832
000030 cd 3f 00 bf 81 75 46 3e 3b 86 98 bc 56 37 fe 3d
       -0.5009735 0.19380762 -0.018618694 0.12412898
000040 6b 27 ac bd 88 b8 4e be 90 d1 3b 3e fe 13 28 3e
       -0.08405956 -0.2018758 0.1834166 0.16413876
000050 f2 c0 68 be 61 78 51 be ed ee 4c be ea 8b 62 be
       -0.22729853 -0.20456077 -0.20013018 -0.22123685
000060 a9 c7 87 be 5e e4 84 bd dd 78 21 3e e6 a6 23 be
       -0.26519516 -0.0648887 0.15768762 -0.15981635
000070 b4 d5 dc be ae 90 40 be 63 4f aa be 64 d3 e8 3d
       -0.43131793 -0.18805191 -0.33263692 0.113684446
000080 bc bd 2b be 69 a2 22 bd 35 dc e5 3d e5 c4 46 3e
       -0.16771597 -0.039705668 0.11223642 0.19411047
000090 50 97 bd 3d 0d ca 96 3e 4f 6c 0a be a6 58 1f bd
       0.09257376 0.29451028 -0.13517879 -0.0389029
0000a0 2e de 27 3e 4f 83 13 be dc 88 46 bc 1f c6 b7 be
       0.16393349 -0.14405559 -0.012117591 -0.35893342
0000b0 f9 e7 0c be a6 3e b4 3d a6 39 20 3e 99 8d 31 3d
       -0.13760366 0.08801012 0.15646991 0.04334793
0000c0 d3 54 21 be ef 51 29 be ca cb e9 be 8d a4 80 3e
       -0.15755014 -0.16535161 -0.4566329 0.25125542
0000d0 8a a0 81 bd b5 7e 34 be c6 b6 ac be 5e 77 98 bd
       -0.063294485 -0.1762646 -0.33733195 -0.074446425
0000e0 16 67 6d be 56 0f 5e 3e 22 91 91 3e a5 97 97 be
       -0.23183855 0.21685538 0.2843104 -0.29607883
0000f0 98 f8 48 3d 50 1c 10 be 19 99 b8 be 9c 52 e8 bc
       0.049065202 -0.140733 -0.36054304 -0.028359704
000100 a7 db 0c 3e 4e 73 3c bd 1e 94 dd 3d ba 9b 05 be
       0.13755666 -0.0460084 0.10819267 -0.13047686
000110 64 79 26 be 50 9d a4 bc de a7 4b 3d 80 aa 29 be
       -0.16257244 -0.020094544 0.049720638 -0.16568947
000120 55 31 ba be 7a 2f 11 be 31 a7 f6 bd 80 c6 57 3e
       -0.36365762 -0.14178267 -0.12043608 0.21071815
000130 b9 1b 29 be ad 7f 19 3e 4c cc 15 3e 85 80 89 be
       -0.16514482 0.1499011 0.14628714 -0.26855865
000140 24 8b ea bd 56 d5 46 bc 46 d3 f7 3d f0 01 54 bc
       -0.1145232 -0.012135824 0.12100844 -0.012939915
000150 02 54 05 be f8 5c 0e be b9 58 d7 3c a0 da d4 3d
       -0.13020328 -0.13902652 0.026287423 0.10393262
000160 c0 aa b7 bd 74 bd 59 be 83 20 e6 be f4 6c 58 bc
       -0.08968115 -0.21263677 -0.4494668 -0.01320957
000170 f2 d1 6c 3e 62 4f 00 be 8b f2 58 3e eb eb 68 be
       0.23126963 -0.12530282 0.21186273 -0.22746246
000180 85 a0 e4 3d cd 0c 2f 3e b5 29 23 3e 49 b5 cd bd
       0.11163429 0.17094727 0.15933879 -0.10044343
000190 5c eb df 3d 99 63 05 be f7 42 8b 3d 43 cd 28 3e
       0.10933563 -0.13026275 0.06799882 0.16484551
0001a0 9b 9f 23 3e 87 33 9c be 03 7f c5 3d 12 ac 58 3e
       0.15978853 -0.30508062 0.09643366 0.2115939
0001b0 fb 69 2f be b8 5d bd be b7 fa 89 3e 9f 18 91 be
       -0.17130272 -0.36985564 0.26949093 -0.28339097
0001c0 80 74 21 3e 44 63 fc 3d 92 c7 08 3d f5 fa 5d be
       0.15767097 0.12323621 0.03339345 -0.21677764
0001d0 1c f1 6b 3d 1e ad 6d 3d e4 7c 96 be 28 02 80 3e
       0.057602987 0.058026426 -0.2939216 0.25001645
0001e0 0e 66 4d 3e 33 f1 d9 bd b0 3b d0 bd 7b 37 8f bd
       0.20058462 -0.10641708 -0.101676345 -0.06993004
0001f0 fd 6e cc 3a 58 be 18 3e ee 0a 2e bc 73 d9 b2 bc
       0.0015597042 0.1491636 -0.010622723 -0.021832203
000200 f9 e0 93 3d 2c 7a 92 bd b8 70 2d be 25 99 fe 3d
       0.072206445 -0.07152209 -0.1693753 0.12431554
000210 32 6c 8a be e3 04 47 bd 98 75 bc bd 0a 8c 3a be
       -0.2703567 -0.048588645 -0.09202117 -0.18217483
000220 b0 06 2c be d3 a4 e8 bd e7 70 8c be 16 95 15 3b
       -0.16799426 -0.11359563 -0.27429888 0.0022824458
000230 d3 27 24 be cd 5c 06 3e df b6 25 3e 23 63 e2 3d
       -0.16030817 0.13121338 0.16183041 0.11054065
000240 7c c1 fa bd 98 d3 ba 3d 7a 0d 8b bd 81 22 8c bd
       -0.122439355 0.091223896 -0.0678968 -0.068425186
000250 b9 09 d8 3d ca cd fb be a0 1b ba 3d ac 5e cf bd
       0.105487294 -0.49180442 0.090873 -0.10125479
000260 24 ed c3 3d b7 32 5a be 43 73 f1 be d3 22 2e 3e
       0.09566715 -0.21308409 -0.4715825 0.17005472
000270 96 4b ce be 69 9c 9b 3d 07 b0 87 3e 48 de 49 3e
       -0.40292042 0.07598192 0.26501486 0.197137
000280 f5 5d 13 be c9 bc fc bd f7 1b 5a 3e 25 48 0b bf
       -0.1439131 -0.123406954 0.2129973 -0.5440696
000290 a0 62 62 3d 99 17 83 3e 7d 15 1e 3e fa cb 29 3e
       0.055269837 0.2560394 0.15437885 0.16581717
0002a0 12 f1 8b be 7e 7d b7 bd d1 f3 ab bd a3 8d f8 3d
       -0.2733236 -0.089594826 -0.08396114 0.1213639
0002b0 39 32 a0 3d 9a 7b 5c 3e cf 0d 50 be f6 31 2d 3e
       0.07822079 0.21531525 -0.20317768 0.1691359
0002c0 66 14 d5 3d 65 6d c1 bd 4a a4 9c bd 6f 4e b8 bc
       0.10404281 -0.094446935 -0.07648523 -0.022498338
0002d0 3a 44 38 bc 99 8f e9 bd 96 f9 3f 3e c5 f4 26 3e
       -0.011246735 -0.11404342 0.18747553 0.1630431
0002e0 d4 77 40 be c7 cb bb 3e 41 13 94 be 3d 56 fc be
       -0.18795711 0.36678907 -0.2892094 -0.49284545
0002f0 e3 83 8d bd e8 c6 31 be 24 32 11 be dc 5c 13 3e
       -0.06909921 -0.17361033 -0.14179283 0.14390892
000300 1f ab 0e be 7c dd ac 3d e7 6e 4c 3e 9a 5c c4 3e
       -0.13932465 0.08440682 0.19964181 0.383519
000310 42 92 52 3c 3c 82 6a bc dc 94 4c bd d8 c2 14 3e
       0.012852253 -0.014313277 -0.04994665 0.14527452
000320 bd de ce 3e 4b 73 a8 bd 79 e1 9d bd a5 f6 98 be
       0.4040431 -0.082251154 -0.07709021 -0.29875675
000330 d5 34 0f be 44 75 1c bd e7 2b 19 3e 8b 83 1e 3d
       -0.13984998 -0.03819777 0.14958154 0.038699668
000340 9f e0 ed bd 77 30 a3 3d bb 7f e8 3c 55 a2 62 bc
       -0.11615109 0.07968228 0.02838122 -0.013832648
000350 fb 97 6b be bb 57 ea 3d f8 d2 d8 bd 39 e1 44 bd
       -0.23007195 0.114425145 -0.10587114 -0.04806635
000360 31 fc 3b be 5a ba 8e be 46 df b2 3d 7b fa 37 be
       -0.18357922 -0.2787655 0.08733992 -0.17966644
000370 86 ce 6f 3d 27 9a 06 bd 18 03 cc bd b2 88 ad bd
       0.058546565 -0.032861855 -0.099615276 -0.08473338
000380 3a 93 3f 3d f1 45 08 3e da 7b 8e bc 0e 67 fa bd
       0.046771266 0.1330793 -0.017393041 -0.12226687
000390 1f 4c cb 3d 02 51 85 bd 3a 23 b0 3d af 1c 76 3d
       0.09926628 -0.06509592 0.08600469 0.06008595
0003a0 ac e0 30 be 6b 09 5c 3e fb 4d b8 3c e8 f7 8d 3d
       -0.17273206 0.21487968 0.022498121 0.0693205
0003b0 8f 5d 15 bd df 92 29 3c c5 12 07 3e 3e 00 6f be
       -0.036466178 0.010349958 0.13190754 -0.23339936
0003c0 26 83 0a be 64 9c 16 3d 2f 5f a8 3d ea 17 7d 3e
       -0.13526592 0.03677024 0.0822128 0.24716154
0003d0 fe 9e 53 be f3 0f 05 3b e4 e3 d3 be 39 0c 79 be
       -0.2066612 0.0020303696 -0.41384804 -0.24321069
0003e0 cd ba 1f bd 19 98 b5 3d 36 91 0a 3e 27 f5 19 3d
       -0.038996506 0.08866901 0.13531956 0.03758731
0003f0 d7 7d 6e 3e 7b d4 90 be 1f b5 74 3e 93 a1 d8 3d
       0.23290192 -0.2828711 0.23897217 0.10577693
